Iris Prediction Android App /iris.tflite (tflite, 20084 bytes, 5 tensors)

sequential/dense/BiasAdd/ReadVariableOp/resource f4 [64]
00000000: d074 4e3c 2523 bb3d 546f c0ba b88f 723d
00000010: 1dc2 84ba 0000 0000 9f12 bbbd a319 293d
00000020: 0000 0000 0000 0000 084e 68bc 0000 0000
00000030: 0000 0000 0000 0000 0000 0000 ac5e 8b3d
00000040: bc72 97bd 9af9 bc3d 0150 2fbd aac1 cf3c
00000050: 0000 0000 400a e1bc 3969 e83c 0000 0000
00000060: ef50 aebc 798a 2a3d 8da5 9a3c 0000 0000
00000070: 0000 0000 0000 0000 0000 0000 99d5 d4bc
00000080: c8da 3b3d ab42 a9bd 0000 0000 0000 0000
00000090: 7d6f a4bb 5c02 8fbc 3f1a 37bd 0d48 2f3d
000000a0: 0000 0000 e079 f13c 0000 0000 325c 7dbc
000000b0: 0000 0000 c690 2cbc 7a87 e9b7 4227 b33d
000000c0: 08c2 873c eae8 eebc 0000 0000 8f12 2d3d
000000d0: d8b3 21bd 526b 60bd 0000 0000 72cf 3a3d
000000e0: 0000 0000 0000 0000 85f3 74bc 0000 0000
000000f0: 0000 0000 f52e c93c cc0e 45bc 6381 9c3c
0.012601092 0.09137563 -0.0014681616 0.059219092 -0.0010128651 0.0 -0.09134411 0.041284215
0.0 0.0 -0.01417876 0.0 0.0 0.0 0.0 0.068051666
-0.07394931 0.09227295 -0.042800907 0.0253609 0.0 -0.027470708 0.028370487 0.0
-0.021278827 0.041635964 0.018877769 0.0 0.0 0.0 0.0 -0.025980758
0.045862943 -0.08264669 0.0 0.0 -0.0050181733 -0.01745718 -0.044702765 0.042793322
0.0 0.02947706 0.0 -0.015463876 0.0 -0.010532564 -2.783885e-05 0.08747722
0.016572013 -0.029163796 0.0 0.042254027 -0.039478153 -0.05478985 0.0 0.04560799
0.0 0.0 -0.014950638 0.0 0.0 0.024558524 -0.012027454 0.019104665

sequential/dense/MatMul f4 [64, 4]
00000000: c28e 503e 38c9 903e 85b1 c0be f0a8 bf3c
00000010: d931 4f3e fad5 d73e bcd4 c0be 6984 babd
00000020: 33e0 37be fe13 763e be37 1b3d c432 08be
00000030: 20dd 7d3e 74ad ee3d 02ea a9be e05f 18bb
00000040: 5f16 58be d59f 873e d12e 123d f3f1 b6bd
00000050: ed97 94be 365b 09be 22d0 823e b009 8fbd
00000060: b8d4 14bc 69ca a1be d2da 153f 9e7d 093f
00000070: 0408 983e f17b 753e fd83 b3be e68d 2c3e
00000080: d841 e4bd 7605 77be d05e d73c 0571 2abe
00000090: 8824 febd 181b 40be a8ba 42be 7561 2bbe
000000a0: c5e4 813e a0d9 9cbe 5afc 45bd 38e0 8f3e
000000b0: 3805 d1bd 16f6 92be cdb9 2ebe 9aad 82be
000000c0: 867c 41be ee3c e8bd 6c38 47bd 8cb4 4ebe
000000d0: 6c8e fbbd 6105 0fbe 7415 54bd 2e15 253e
000000e0: 7c49 fc3d 248d 2cbe 6abf 56be d412 833e
000000f0: 7722 133d 7150 a93e 5b1c d8bd 4856 90bd
00000100: a4ef fabc 106a a0be 2524 ac3e e726 933e
00000110: 0328 e83e 0cf5 313c 62c3 e1be 15bc 1dbe
00000120: c291 4f3e 5ebd a3be 422c 9b3e 54ac a23e
00000130: 105d 423e 9d8d 893e f338 2b3e 3eff 6cbe
00000140: 7bae 2dbe a810 6d3d a0c8 113e 00d4 e43b
00000150: 001a 0f3d b54b ccbd 45c8 fa3d aa1d 6dbd
00000160: b2a4 293e 74f3 a73d 739a b03c 1b14 183e
00000170: 7070 3cbd 3ea4 82be ae74 90bd 1a77 97be
00000180: 4b53 adbd bf87 ecbb fa34 9c3e cc9e cb3d
00000190: 25a6 3c3e cbb0 88bd dfff 8bbc c2db 51be
000001a0: 7be0 f03d a631 873e ef27 bcbe 3cfa 733e
000001b0: 231b 8dbe 9872 45be c0ab 8a3c 8008 e53b
000001c0: 80bc 28bc a117 54be 2aeb 1fbe 5e71 56be
000001d0: 7604 27be 8049 3bbb 50b4 9e3d 5454 023e
000001e0: 0015 7dbb d8fa 5abe a83e 49be 7483 bfbd
000001f0: 35ae cdbd 41b6 26be 820e 8f3e ad51 64bd
00000200: a58c f33d 852f 813e a71f 423e 09a3 9abe
00000210: 0be2 d5bd b282 97bc 4de7 d83e 5f88 a03e
00000220: 3225 60be 0ba9 97be 1c6b 6d3e 10ed 22be
00000230: ae1e 8bbe d660 a8bd 869d 8a3e cd1e 38be
00000240: f563 b83d 24e3 3bbd f8f6 783e 5343 0d3d
00000250: e967 5b3e 0738 923e 0efe f6bc 6fba f63d
00000260: e043 20be 29b2 ef3d 34c6 cf3e 1821 5d3e
00000270: 7605 b63e 0a3b 11be daa4 b5be e567 183e
00000280: 7488 ad3d a66b 82be 7e8b c5bd 9046 3bbd
00000290: 0ca1 613e 671a 6dbe 6031 a93c 17e5 86be
000002a0: a662 eabd 94b3 ddbd 7034 1d3d 5671 63be
000002b0: ebfe 3a3e b49b 16bd e2b4 733e b210 18be
000002c0: 8bb8 61be a47f 71be 3ea3 a9bd 6030 583c
000002d0: 9466 173e c9cf 2e3e b262 c3bc 0ea1 b6bc
000002e0: 8404 083e 9a60 943e 1bb2 f4bd 6929 7f3e
000002f0: 529b d43e 733b 383d ab88 0bbe bc41 c1be
00000300: 5c05 193e 36d4 a3bd 2215 603e b9d3 4a3c
00000310: 011c 9abd 368c 1ebd 1c43 a63e 300b 903d
00000320: 30a3 c53d 5017 afbd 6274 43be c6d3 04be
00000330: 142f ae3e 43de 513e 181f 3ebd 130c b4be
00000340: fcb0 01be 5026 72be 0e69 c53e 033c d3bd
00000350: e595 033e 8269 803b 3582 9f3e 0c69 bc3e
00000360: 9237 0dbe 7254 3fbe e8ef 273e e04b 723c
00000370: b889 aa3e c380 a93e 5d98 ff3d 4a5d 33be
00000380: 6c11 abbd b0dd bf3d 7e6b 14be 7614 863e
00000390: 88af 2fbe a8c8 1abd 7819 8fbe 1667 1b3e
000003a0: e4e7 533e 01e1 72be 182d 573e 7a0a 993d
000003b0: c40d 7bbd e77e 11be d036 2fbd 8dc9 87be
000003c0: 5cdb b6bd ec9d 37be be7a 0cbe 86a6 2b3e
000003d0: 8e1a 543e 95ba ecbd adf0 f2bc 5f85 9ebd
000003e0: e998 fb3d f491 9cbd 34fb 86be 9487 28be
000003f0: 6e1c 393e addf 98be cd10 4c3e 66a9 8bbc
0.20366958 0.28278518 -0.37635437 0.023395985 0.20233859 0.4215544 -0.37662303 -0.091072865
-0.17956619 0.24031064 0.037894957 -0.13300616 0.24791384 0.11654177 -0.33186346 -0.0023250505
-0.21102284 0.2648913 0.03568918 -0.08932867 -0.2902216 -0.134137 0.25549418 -0.069842696
-0.009083919 -0.3159974 0.5853702 0.537073 0.29693615 0.23973061 -0.35061637 0.16851005
-0.11145371 -0.24123177 0.026290327 -0.16644676 -0.124093115 -0.18760335 -0.19016516 -0.16736396
0.2536985 -0.30634785 -0.048336364 0.28100753 -0.102060735 -0.28703374 -0.17063065 -0.25523072
-0.18895158 -0.113397464 -0.048637792 -0.2018606 -0.12283024 -0.13966896 -0.05177827 0.1612136
0.123187035 -0.16850716 -0.20971456 0.25600302 0.03592154 0.33069184 -0.105522834 -0.07047707
-0.030631848 -0.3133092 0.33621326 0.28740618 0.45343027 0.010861646 -0.44094378 -0.15403779
0.20270446 -0.31980413 0.30307204 0.317721 0.18980813 0.26865855 0.16720943 -0.23144242
-0.1696109 0.057877213 0.14236689 0.00698328 0.034936905 -0.099753775 0.1224523 -0.057889618
0.16566733 0.08200732 0.021558022 0.1485142 -0.046005666 -0.25515932 -0.07053505 -0.29583055
-0.084631525 -0.0072183306 0.30509168 0.099423975 0.18422754 -0.066743456 -0.017089782 -0.20493987
0.11761566 0.26405066 -0.36749217 0.23825926 -0.27559766 -0.19281995 0.0169276 0.0069895387
-0.010298848 -0.20712139 -0.15617052 -0.20941684 -0.16310295 -0.0028577745 0.07749236 0.12727481
-0.0038617253 -0.21384752 -0.19652808 -0.093512446 -0.10042993 -0.16280462 0.27940756 -0.055741955
0.1189206 0.25231567 0.18957387 -0.3020251 -0.10443505 -0.018494938 0.42363968 0.31354043
-0.21889189 -0.29621157 0.2318539 -0.15910745 -0.27171844 -0.08221595 0.27073306 -0.179805
0.0900344 -0.045870915 0.24312961 0.034488034 0.21426357 0.2855837 -0.03015044 0.12047278
-0.15650892 0.11703903 0.40580904 0.21594656 0.3555104 -0.14182678 -0.35477334 0.14883383
0.08473292 -0.25472754 -0.09645747 -0.04572159 0.22034091 -0.23154603 0.020653427 -0.26346657
-0.11444597 -0.108252674 0.038380086 -0.22211203 0.18261306 -0.036769584 0.2379947 -0.14850119
-0.22043054 -0.23583847 -0.08283089 0.013195127 0.14785224 0.17071451 -0.023850773 -0.022293594
0.13282973 0.2897995 -0.119480334 0.2491814 0.4152475 0.04497857 -0.13626353 -0.37745464
0.1494345 -0.079994604 0.21883062 0.01237958 -0.075248726 -0.038707934 0.32473075 0.07033384
0.09650266 -0.085493684 -0.19087365 -0.1297141 0.34020293 0.20494942 -0.046416372 -0.35165462
-0.1266517 -0.23647428 0.38556713 -0.10314181 0.12850149 0.0039188275 0.31154028 0.36798894
-0.1379073 -0.18684557 0.1640011 0.014788598 0.33308196 0.3310605 0.12480233 -0.17516056
-0.08352932 0.093684554 -0.1449413 0.26187485 -0.17156804 -0.037789017 -0.2794912 0.15176043
0.20693928 -0.23718645 0.21013296 0.07472701 -0.061292425 -0.14208566 -0.042776883 -0.2652096
-0.08928558 -0.17931336 -0.13718697 0.16762742 0.20713255 -0.11559025 -0.029655779 -0.07740282
0.12285025 -0.07645026 -0.26363528 -0.16457969 0.18077251 -0.2985815 0.19928284 -0.017048549

sequential/dense_1/MatMul f4 [64, 64]
00000000: 64b4 e53d dcb6 38be df83 4ebe 4ce3 82be
00000010: d744 1dbd e9aa 39be 4b64 303e 4b8f f5bd
00000020: c689 ab3d 82ba 02be bdfa 593e d175 153e
00000030: 283f 93bc 6f1b 4bbe 01b9 54be 7dba 6ebe
00000040: c4cb 7e3d 5132 3ebe 524b dc3d 2338 09be
00000050: 3464 533d 6349 373e b43a 2b3e 1d22 0c3e
00000060: 1936 593e 5d33 163e a2f8 9f3d 340b 47be
00000070: 4b90 273e f93b 5abe 50e5 1bbd 2a55 2fbd
00000080: 5ae4 afbd fb22 9e3d fa59 d13d 9948 2b3e
00000090: 8f17 3e3e 6065 f33d 68ee 7f3e 3b9e 21be
000000a0: 0490 b2bd 6fd5 48be 81d4 243e 1969 13bc
000000b0: 1c50 55be f901 84bd 720f 1f3d 545e 50be
000000c0: 96db 013e cb0c 793e f680 8fbd 699a 5bbe
000000d0: c596 063d 7424 ce3c d6e3 00be 4cac 363e
000000e0: e3d1 443e 8222 26be aa74 643e ecef 24be
000000f0: 6322 29be 0708 e23d 8974 46be b491 89bd
00000100: d8c1 d03d 1337 ff3d 4871 2ebe 7658 be3d
00000110: f3fb 2abe fc44 28be 08d0 dcbc 82b0 3d3e
00000120: c0d0 153b 9c5a 4abd a8f1 293e 90e8 4fbd
00000130: c00e a9bb c06c 2d3b ded2 b43d 2e2c 74bc
00000140: 93f0 ddbd 0e4c 193d 188b 1ebe 455e 1c3d
00000150: 0440 413d 6219 403d a77b 23be 8502 1cbe
00000160: e297 243c 2a46 49bc 88a0 323d 4091 bdbd
00000170: f369 01be 38ff 89bc a80d 4bbe b5f2 bebd
00000180: c53a 0f3e e6d5 933d cc49 4cbe 6c1a 56bd
00000190: fbd1 0a3e a6a6 27be 0b72 26be 96a5 e8bd
000001a0: d093 983c 91b7 44be 19d1 243e a735 4d3d
000001b0: cc29 73bd af24 9b3d 4ee0 113e e3fd 833c
000001c0: ca69 e53b 2017 bf3d 96b7 f93d 54f8 5bbe
000001d0: 0eeb 0b3e 034d c8bd ab8f 573e f9dd 3a3d
000001e0: c29a 853d 3be2 343e e924 90bd f43f 2bbe
000001f0: 15ba 4c3e 3b50 b33d d8c4 093d f736 a73d
00000200: 37e6 753e c90c 0d3e 40d7 1bbe 4acf 833c
00000210: 6232 32be 2265 9dbd 907c 96bd b67a c53d
00000220: d2a1 d9bd 6b17 f0bd e6ae f9ba 845c 2ebd
00000230: 46d2 db3d 30d8 34bc c22e 39be 07f5 43be
00000240: 6426 543d d789 93bd 5556 0dbe 5127 49be
00000250: ca5d f93d 10d6 1abe ab8e 63bc cf98 283e
00000260: 666a 9a3d 05aa 02be 8687 253e 3126 103e
00000270: 1fa5 fdbd 2da4 4c3e 0c3b 1e3d 981f 093e
00000280: f974 a8bd 3f81 31be 7c5c 4fbd e6f3 00be
00000290: b266 c1bd 221d 47be 2e5f 0e3e f855 543d
000002a0: 683a c2bc c26e aa3b e03d ee3b 9ef7 4fbe
000002b0: f414 eabd a1f6 a1bd 5092 1d3d 3c0c 85bd
000002c0: 2eab 1e3c c419 7e3c 61dc 403e 854f a8bc
000002d0: d2f9 0dbd fb12 39bc 00ed bcbd de69 213e
000002e0: db9a 57be 5080 36bc 046b 303e 0c74 1c3d
000002f0: b289 8c3d 7fed f33c 81a1 f53d 80f5 b7bd
00000300: 7d00 2bbe 116d 423e a6f1 513e e684 05be
00000310: a564 89bd 8372 15be ad2b d23d da5a 2dbd
00000320: 45b4 143e 242f 54be 38d0 68bd d0d9 3f3c
00000330: 2c7a 44be 1812 e23c f3b7 023e 0dc8 3d3e
00000340: 9270 1bbd 4574 7a3d 4aa1 7fbd 9698 493c
00000350: 9352 363e 5feb 48bc 2ec2 383e 1b41 4e3e
00000360: 4907 21be a23a 4fbe 7a7d a53d 6ef3 83bd
00000370: 330e fcbd d084 5bbc 2a88 e33d 582c d7bd
00000380: 301b 133e ec92 9c3d ae44 9abd 9601 eb3d
00000390: 44f0 b73b 7461 0e3e 4c42 1a3e 3ac4 f0bd
000003a0: 1a8d 913d f5f7 edbd 502e 553c bd4b bebd
000003b0: b5f0 433e c87f cbbd d865 e63d e97f 763e
000003c0: 3467 60be 57ad 783c 2fdd 5c3e 5e19 d13d
000003d0: c761 5fbe b4d1 e4bc 6b9d bebd b8da f83d
000003e0: d9fd 34be 8e9a 803d f34d 1bbd bcb6 6dbd
000003f0: badb 3dbe 21c8 3cbe 9c24 44be 75ef b53a
0.112160474 -0.18038505 -0.20167492 -0.2556404 -0.03839573 -0.18131603 0.17225759 -0.119902216
0.083758876 -0.1276646 0.21287055 0.14595725 -0.017974451 -0.19834684 -0.20773698 -0.23313327
0.062206045 -0.18573882 0.10756554 -0.1340032 0.051609233 0.17899089 0.16721612 0.13684888
0.21212043 0.14668031 0.07811095 -0.19437867 0.16363637 -0.2131194 -0.038060486 -0.04280583
-0.085884765 0.07721516 0.1022224 0.16726913 0.18563674 0.1188457 0.24993289 -0.15783016
-0.08718875 -0.19612668 0.16096689 -0.008997225 -0.2083134 -0.06445689 0.03883309 -0.20348483
0.12681422 0.24321286 -0.07007019 -0.21445622 0.03285863 0.025163867 -0.12586913 0.17839164
0.1922069 -0.16224101 0.22310129 -0.16107148 -0.16517024 0.11036687 -0.19380392 -0.06717244
0.10193223 0.124616764 -0.17035401 0.09294216 -0.16697673 -0.16432565 -0.026954666 0.18524364
0.002286002 -0.049402818 0.16596091 -0.0507589 -0.005159229 0.0026462525 0.08829282 -0.014903111
-0.108369015 0.037426047 -0.15482748 0.03817584 0.04718019 0.046899207 -0.15965138 -0.15235336
0.010045977 -0.012284795 0.043610126 -0.0925622 -0.12638073 -0.01684533 -0.19829428 -0.093236364
0.13987263 0.07218532 -0.19950026 -0.05227129 0.13556664 -0.16372165 -0.16254441 -0.11359708
0.01862517 -0.1921065 0.1609539 0.050099995 -0.059366032 0.07575356 0.14245722 0.016112274
0.0070011364 0.093305826 0.12193219 -0.21481448 0.13663885 -0.09780314 0.21050899 0.045621846
0.06523658 0.17664425 -0.0703829 -0.16723615 0.1999286 0.08755537 0.03363499 0.081647806
0.24013601 0.13774408 -0.1521883 0.016090054 -0.17402032 -0.07685305 -0.07347977 0.09642546
-0.10626568 -0.117232166 -0.0019049316 -0.0425687 0.10733466 -0.011037871 -0.18084243 -0.1913644
0.051794425 -0.07204025 -0.13802464 -0.19643904 0.12176092 -0.15120721 -0.013888995 0.16464542
0.07539825 -0.1276017 0.1616498 0.14077069 -0.1238501 0.19984503 0.03863053 0.13390958
-0.08225436 -0.1733446 -0.05062531 -0.1259304 -0.09443416 -0.19444707 0.13903496 0.0518398
-0.02370949 0.0052011916 0.0072705597 -0.20309302 -0.11429778 -0.07908369 0.038469613 -0.06496474
0.009684367 0.015509073 0.18834068 -0.02054573 -0.034662075 -0.011296029 -0.09224892 0.15763041
-0.21055166 -0.0111389905 0.17228323 0.03819661 0.06862201 0.029776333 0.11993695 -0.08982372
-0.16699405 0.18986918 0.20502338 -0.13038978 -0.067086495 -0.14594464 0.10262237 -0.04232297
0.14521892 -0.20721108 -0.056839198 0.011709645 -0.1918723 0.027596518 0.12765484 0.18533345
-0.037949152 0.06114604 -0.062409677 0.012304446 0.17804937 -0.012263148 0.18042824 0.20142023
-0.15725435 -0.2023721 0.080805734 -0.06442915 -0.12307396 -0.013398364 0.111099556 -0.10506505
0.1436584 0.076452106 -0.07532631 0.11474912 0.0056133587 0.13904363 0.15064353 -0.11756177
0.07106991 -0.1161956 0.01301153 -0.0929179 0.19134791 -0.09936482 0.11249894 0.24072231
-0.21914369 0.015178046 0.2156875 0.102099165 -0.21814643 -0.027932025 -0.09307369 0.12151092
-0.1767496 0.06279479 -0.037916135 -0.058035597 -0.1854085 -0.18435718 -0.1915459 0.0013880568

sequential/dense_2/MatMul f4 [3, 64]
00000000: 768a 9abe dc77 5a3e 3165 5d3e c33f 893e
00000010: 0588 103e 6e27 96bd 1b2b 793d 0442 a5bc
00000020: eab7 2dbe 016d a53e fcd4 f73d 586a 07be
00000030: 18b7 e6be 275f 413e 3c1b 873e e655 af3e
00000040: 1030 babe 9222 8a3e 5feb 93bd 7111 17be
00000050: 16b5 853d 3ed6 bdbb a943 063e c9a4 97be
00000060: 4bfc 11be 0a70 5dbe 3036 65be f228 0ebe
00000070: 620f 67be cb49 8c3e 04be 4b3c bbc1 ee3d
00000080: c02d 023e 7c21 903e 5d89 ebbe 63fa 3dbe
00000090: 1649 46be dc12 9d3e 9fd3 08be 4822 83be
000000a0: 8b39 31be b04c b2bd ca67 143e 95e6 a7be
000000b0: 1cc3 663d 2e53 1b3e 7d33 893e ce37 2bbe
000000c0: 0ae4 4e3e 40b6 b7bd c4df f7bd ddb7 853c
000000d0: ba72 613e c1f0 c43e 8109 f13e dc45 13be
000000e0: e8de 30bd d9a7 e1bd 2a86 733d 4c96 803e
000000f0: f058 133e 98cf 8cbe 8ae5 da3d c379 07bd
00000100: fa79 e9bd 3076 2f3e 881d cabd 74bc 643e
00000110: 56bc 83be 0914 b9bb 6bdf 6e3e aa99 b0bd
00000120: 6e17 093e 62d8 98be 8ce9 6c3e 22d6 1f3d
00000130: 3848 7a3e 61c3 b7bd f772 7dbe d77f 7dbc
00000140: d767 8439 7dbe 8bbb 6d3a b9bd 9a4d 03bc
00000150: 5764 8c3e bb19 be3d e09f acbd 5c32 04bd
00000160: 7d03 0d3e e5c4 e0bd abaa 11be 4741 82be
00000170: ca42 3cbc 8f3d 5f3e 515e 63be 38bf edbd
00000180: 6c3a d1bc b147 8e3e e65d a4be b236 8c3d
00000190: 8aef bb3d deda da3c e24d e6bd f73d dc3c
000001a0: 9ff5 273d 5f02 39be 8e62 d23d bf6b 5abe
000001b0: 676a 493d 16a2 073e 0010 94be 10de 4b3d
000001c0: c76b d9bd fcc8 ce3d ea1c 363c 9007 5e3e
000001d0: 231c 68be f637 3e3e 383b 33be c8a2 213e
000001e0: b49b ff3d 9296 553e 0bfe 193d f7ab 273e
000001f0: 4a03 443e 1518 05be 53f8 103e b728 293e
00000200: 4f90 c83e b89a 4e3e 7cb8 e3bc 11d5 33bd
00000210: 86af 683e 1020 8d3d ea7a e7bd 4187 9ebe
00000220: e73b 8abe 3a58 593e b510 553e 6d26 13be
00000230: 0ccd d93e 9bee 71be d5cf 57be 19bd 7fbe
00000240: e437 193e 91b4 85be 93e3 603e a62a eb3c
00000250: 2841 0d3b 819f 113e fe2a a63e fd62 d63d
00000260: e539 cbbd caa9 b03c b3a1 7b3e 50b9 8ebe
00000270: c1a3 42bc 8541 2c3e 59df 93be c6b9 9fbd
00000280: 04e7 7bbe ac17 60be bcd5 ad3e de4c 36be
00000290: bef4 95be bbfb a0be 3ba0 933e 5fdb c53c
000002a0: b462 8fbe a18c bebd 37d6 be3c b209 d43e
000002b0: 105b a1be b29c 9a3d 77af 55be 1457 a6be
000002c0: da14 21be aec0 ba3e ab4a af3e aec2 cbbe
000002d0: 92ea 51bd ec12 bcbd c385 003d d155 72be
000002e0: 553d 663e 3a3d 94be 6f26 e1bd 2e7c d3be
000002f0: eeae 95be 5fd5 b03e 9859 aebe 8a62 26be
-0.30183762 0.21334785 0.21620633 0.2680646 0.14114387 -0.07331739 0.060832124 -0.02017308
-0.16964689 0.32309726 0.121011704 -0.1322416 -0.45061564 0.18883954 0.26387966 0.34245223
-0.36364794 0.269795 -0.07222628 -0.14752747 0.0652868 -0.005793362 0.13111748 -0.2961791
-0.14256398 -0.21624771 -0.22383952 -0.13882807 -0.22564462 0.2740005 0.01243544 0.11658045
0.12712765 0.28150547 -0.46003237 -0.18552546 -0.19363818 0.3067845 -0.13361977 -0.25612092
-0.17307107 -0.08706033 0.14492717 -0.32793108 0.056338415 0.1516845 0.26797095 -0.16720507
0.20204177 -0.08970308 -0.12103227 0.016323024 0.22016421 0.3846493 0.47077563 -0.14382118
-0.04318133 -0.110183425 0.05945412 0.25114667 0.14389396 -0.2750213 0.10688312 -0.033075105
-0.11400218 0.17134929 -0.09868914 0.22337514 -0.25729626 -0.0056481403 0.23327415 -0.08623059
0.13387844 -0.29852587 0.23135966 0.039022572 0.24441612 -0.089728124 -0.24750887 -0.015472374
0.0002525437 -0.0042646513 -0.09044347 -0.008014107 0.27420303 0.092822514 -0.08428931 -0.03227459
0.13770862 -0.10975055 -0.14225261 -0.25440428 -0.011490533 0.21800826 -0.22203948 -0.11608738
-0.025540553 0.2778907 -0.3210289 0.0684637 0.09176548 0.026715692 -0.11245324 0.026885016
0.041005727 -0.18067311 0.10272704 -0.21330164 0.04917374 0.13245425 -0.28918457 0.049772322
-0.1061626 0.100969285 0.011115292 0.21682572 -0.22666983 0.18576035 -0.17503059 0.15784752
0.1248087 0.2085822 0.03759579 0.16374193 0.1914188 -0.12997468 0.14157228 0.16519438
0.391726 0.20176208 -0.02779793 -0.043904368 0.22723207 0.06890881 -0.11302741 -0.30962566
-0.26998827 0.21225062 0.20807154 -0.14370127 0.4253925 -0.23626177 -0.21075375 -0.24974479
0.14962727 -0.26114324 0.21961813 0.02870686 0.0021553729 0.14221002 0.32454675 0.10468099
-0.09923152 0.021565337 0.24573402 -0.27875757 -0.011879862 0.16821869 -0.28881338 -0.07799105
-0.24599844 -0.2188403 0.3395213 -0.1780276 -0.29288286 -0.31442055 0.28833184 0.024152456
-0.28004992 -0.093041666 0.023295505 0.41413647 -0.31514788 0.075494185 -0.20867716 -0.3248831
-0.1573061 0.36475128 0.34236655 -0.39796966 -0.051249094 -0.091832966 0.031377565 -0.23665549
0.22484334 -0.28952962 -0.10993659 -0.4130568 -0.29235023 0.3453779 -0.3405273 -0.16248527

sequential/dense_2/MatMul;sequential/dense_2/BiasAdd f4 [3]
00000000: abfa 3e3e cafd 7d3e 1f73 febe
0.1865031 0.24803844 -0.49697205
